…
:"c1WE5URLNEbD","executionInfo":{"status":"ok","timestamp":1607474686462,"user_tz":300,"elapsed":311,"user":{"displayName":"bikkina rohith","photoUrl":"","userId":"00040099719680836834"}},"outputId":"789e5859-aa25-4339-d9aa-51a8aaa1b916"},"source":["model.summary()"],"execution_count":null,"outputs":[{"output_type":"stream","text":["Model: \"sequential\"\n","_________________________________________________________________\n","Layer (type)                 Output Shape              Param #   \n","=================================================================\n","conv2d (Conv2D)              (None, 224, 224, 64)      1792      \n","_________________________________________________________________\n","conv2d_1 (Conv2D)            (None, 224, 224, 64)      36928     \n","_________________________________________________________________\n","max_pooling2d (MaxPooling2D) (None, 112, 112, 64)      0         \n","_________________________________________________________________\n","conv2d_2 (Conv2D)            (None, 112, 112, 128)     73856     \n","_________________________________________________________________\n","conv2d_3 (Conv2D)            (None, 112, 112, 128)     147584    \n","_________________________________________________________________\n","max_pooling2d_1 (MaxPooling2 (None, 56, 56, 128)       0         \n","_________________________________________________________________\n","conv2d_4 (Conv2D)            (None, 56, 56, 256)       295168    \n","_________________________________________________________________\n","conv2d_5 (Conv2D)            (None, 56, 56, 256)       590080    \n","_________________________________________________________________\n","conv2d_6 (Conv2D)            (None, 56, 56, 256)       590080    \n","_________________________________________________________________\n","max_pooling2d_2 (MaxPooling2 (None, 28, 28, 256)       0         \n","_________________________________________________________________\n","conv2d_7 (Conv2D)            (None, 28, 28, 512)       1180160   \n","_________________________________________________________________\n","conv2d_8 (Conv2D)            (None, 28, 28, 512)       2359808   \n","_________________________________________________________________\n","conv2d_9 (Conv2D)            (None, 28, 28, 512)       2359808   \n","_________________________________________________________________\n","max_pooling2d_3 (MaxPooling2 (None, 14, 14, 512)       0         \n","_________________________________________________________________\n","conv2d_10 (Conv2D)           (None, 14, 14, 512)       2359808   \n","_________________________________________________________________\n","conv2d_11 (Conv2D)           (None, 14, 14, 512)       2359808   \n","_________________________________________________________________\n","conv2d_12 (Conv2D)           (None, 14, 14, 512)       2359808   \n","_________________________________________________________________\n","max_pooling2d_4 (MaxPooling2 (None, 7, 7, 512)         0         \n","_________________________________________________________________\n","flatten (Flatten)            (None, 25088)             0         \n","_________________________________________________________________\n","dense (Dense)                (None, 4096)              102764544 \n","_________________________________________________________________\n","dense_1 (Dense)              (None, 4096)              16781312  \n","_________________________________________________________________\n","dense_2 (Dense)              (None, 5)                 20485     \n","=================================================================\n","Total params: 134,281,029\n","Trainable params: 134,281,029\n","Non-trainable params: 0\n","_________________________________________________________________\n"],"name":"stdout"}]},{"cell_type":"code","metadata":{"id":"Fq8LsZ1oNIj2","colab":{"base_uri":"https://localhost:8080/"},"executionInfo":{"status":"ok","timestam
…
